=== Model Summary ===
Model: "sequential"
┏━━━━━━━━━━━━━━━━━━━━━━━━━━━━━━━━━━━━━━┳━━━━━━━━━━━━━━━━━━━━━━━━━━━━━┳━━━━━━━━━━━━━━━━━┓
┃ Layer (type)                         ┃ Output Shape                ┃         Param # ┃
┡━━━━━━━━━━━━━━━━━━━━━━━━━━━━━━━━━━━━━━╇━━━━━━━━━━━━━━━━━━━━━━━━━━━━━╇━━━━━━━━━━━━━━━━━┩
│ masking (Masking)                    │ (None, 15, 63)              │               0 │
├──────────────────────────────────────┼─────────────────────────────┼─────────────────┤
│ conv1d (Conv1D)                      │ (None, 15, 64)              │          12,160 │
├──────────────────────────────────────┼─────────────────────────────┼─────────────────┤
│ time_distributed (TimeDistributed)   │ (None, 15, 64)              │               0 │
├──────────────────────────────────────┼─────────────────────────────┼─────────────────┤
│ bidirectional (Bidirectional)        │ (None, 128)                 │          66,048 │
├──────────────────────────────────────┼─────────────────────────────┼─────────────────┤
│ dropout (Dropout)                    │ (None, 128)                 │               0 │
├──────────────────────────────────────┼─────────────────────────────┼─────────────────┤
│ dense (Dense)                        │ (None, 32)                  │           4,128 │
├──────────────────────────────────────┼─────────────────────────────┼─────────────────┤
│ dropout_1 (Dropout)                  │ (None, 32)                  │               0 │
├──────────────────────────────────────┼─────────────────────────────┼─────────────────┤
│ dense_1 (Dense)                      │ (None, 50)                  │           1,650 │
└──────────────────────────────────────┴─────────────────────────────┴─────────────────┘
 Total params: 251,960 (984.22 KB)
 Trainable params: 83,986 (328.07 KB)
 Non-trainable params: 0 (0.00 B)
 Optimizer params: 167,974 (656.15 KB)

=== 모델 입력 형태 ===
데이터 입력: (2305, 30, 63)
73/73 ━━━━━━━━━━━━━━━━━━━━ 1s 8ms/step   

=== Classification Report ===
                                precision  recall  f1-score   support
…
